model/model.pth (torch, 17216 bytes, 4 tensors)

linear1.weight f4 [256, 11]
00000000: 7ee7 e33c 3523 f0be ee55 af3e 2b28 3abd
00000010: d75e 4e3e 9a1a 00be 9947 62be deca c9bd
00000020: 2c00 76be 974f cdbe a41a 2ebe 193e 73be
00000030: 50d4 2abe 22fc 0f3f c414 8abe 5ce0 403e
00000040: c5c3 ad3e afb7 903d d7d3 06bf 0be2 d0bd
00000050: 542d cbbd a9b5 4d3d 0c20 313f f215 90bd
00000060: 13d9 b03c 6ae9 8b3b cb6c 86be 4669 a23e
00000070: 5004 df3e c551 c23d bc91 b73e 5110 79be
00000080: deaf c9be 4980 003f 15c4 293e 28bd 88bf
00000090: 9e8a 5dbe f30f bb3d 55d9 34be b5b9 44be
000000a0: f940 883e 93ea 1bbc d698 573e 2efb b93e
000000b0: a27f 3a3e 3728 973c 5170 a7bd d056 8abd
000000c0: ac4f 13be 4c8f e6bd 7c8e 6dbe 2a8b 953e
000000d0: dc94 b53e 25b9 ad3e 5d52 d83e 37ce ff3e
000000e0: a393 dbbe 26fe 98bd cde7 743e 518e 1abd
000000f0: 1b2b 4fbe c48d e5be 423e 8cbe 9e9f 9abc
00000100: 2f01 f33d 72be b9be aa43 463e 21a7 92be
00000110: 8847 99bd 3865 4e3c 30bb e8bd a28c ecbd
00000120: cfbe 26be a1e0 61be 48f8 4fbe 8677 5cbe
00000130: 42f6 db3d c6ff e9bd fc5c 923d 3cea 0ebf
00000140: 6212 e13e b73e 0cbe b607 463d 4e47 ccbe
00000150: b9e6 63be b824 9a3e 7aee 7cbe a7d7 2a3f
00000160: 3500 d63e 920f 3c3f 8a53 f4be 5454 9fbc
00000170: 6668 bcbd c98e 51be d4db d73d 5994 3d3e
00000180: cde7 b53e bd92 803e 6f61 62be dd54 b83e
00000190: 9ac5 f23b 7830 2ebd caab 813d 24aa 553e
000001a0: 1673 91be 01be 34bf d7fd 8fbe b567 1abf
000001b0: cc64 763e 5c59 de3d ef29 fbbd 10f9 113f
000001c0: 0776 9dbe 10ce 973e ab71 dbbe 9479 9e3d
000001d0: 74ce 613e 0e52 093e 6117 0bbf 2c45 8abe
000001e0: 4aa2 be3d 2416 4dbe cc69 fbbc 08bb e33e
000001f0: 015a 90be b699 a13e 0c6d 56bd f935 14bf
00000200: 51e4 7e3e 1b11 78be 834d cebb 6d99 0d3f
00000210: 5ca5 033f dd4f b63e f962 34bf 1539 8ebc
00000220: 099d cf3d 2070 c7bd a780 083d c177 b03e
00000230: 5eb6 b23e bf90 ab3e 536d 963e 5257 3ebf
00000240: 02e5 0d3f 786f 213e ea2a a1be 5f7f 123c
00000250: 8d10 91be 0a1a 843c 0253 d8bd a0d2 3e3e
00000260: fb10 81be 66e7 903e 11a5 443e c5af b63e
00000270: 7018 b43e fff8 80be f26e 34be 145a 633e
00000280: 3882 a4be 5562 1a3e 6e22 943d c57e 15be
00000290: 200e db3e 46ae b6bb 8a27 a4be 8f2b d0be
000002a0: 2bb3 5d3e 2b23 333d 4d1a 5e3e 9688 bd3e
000002b0: c9c1 0dbe 32e6 84be 4fbe 98be 9ced b5be
000002c0: dad5 f13b 8bb7 593d 35f0 06be 605b 2f3f
000002d0: 3630 93bd d36b 5f3e 5e4e 76be 0c83 dcbe
000002e0: e37d 883e b2c1 b1be 6b51 0e3f 52af 75be
000002f0: 1f22 96be 8373 eb3e 956a 22bf 911e 0cbf
00000300: 7591 293e a420 ba3d af49 acbe 92ad a3be
00000310: 055e 8d3e 6c6a c43e ba7e c4be fbbc 91be
00000320: c4c8 f8bd 73ea 99be 488a 293e 6408 ac3e
00000330: da1a eebe ec59 c5be b52c febe 3b3c 933e
00000340: b62d 09bf 8afa ca3d ac8e 2fbd c03e 4cbc
00000350: 61df 75bc 48d6 c23c 9a29 4eba 07e8 2abc
00000360: de4b 9cbc 98b0 503d a149 f63d 22ce 083e
00000370: 9833 903d c9d9 cbbe a021 75be 45d4 053f
00000380: 5a2e c33b a06b 783e 201b 8fbe f428 f9be
00000390: 503a 99bd ce5f d4be 84ae c23e e471 03bd
000003a0: c201 d7be 2c7a 3cbf 0e32 533e 0301 62be
000003b0: 3dd1 0b3f 57f8 29bf 17a7 ebbd b072 23bf
000003c0: a467 ba3d d33a 7fbf 142d a0bd 91a8 2b3d
000003d0: 1e5e c83d 4251 a3be 12bd 253f bbb8 8d3e
000003e0: d517 f4be b05c 27bf d4a8 a13e 08f1 3abf
000003f0: c93c ffbe 0858 d4bd 79bf 073f c877 bcbd
0.027820345 -0.4690186 0.34245247 -0.045448463 0.20153366 -0.12510148 -0.22097625 -0.09853147
-0.24023503 -0.40099785 -0.1700235 -0.23754157 -0.16682553 0.562441 -0.26968968 0.18835586
0.33938423 0.07066285 -0.5266699 -0.10199364 -0.09920755 0.050222073 0.69189525 -0.07035436
0.021587884 0.0042697685 -0.26254877 0.31720942 0.43557978 0.094882526 0.35853374 -0.2432263
-0.3939199 0.5019575 0.16578706 -1.0682726 -0.2163491 0.091339014 -0.1766103 -0.19211467
0.2661207 -0.009516376 0.21054396 0.36324447 0.1821275 0.018451793 -0.081757195 -0.067548394
-0.14385861 -0.112578005 -0.23198885 0.29207736 0.35465133 0.33930317 0.42250338 0.49962017
-0.42886075 -0.0747035 0.2391655 -0.03773338 -0.20231287 -0.4483472 -0.2739125 -0.01887494
0.1186546 -0.3627811 0.1936175 -0.28643134 -0.07484347 0.012597375 -0.11363828 -0.11550261
-0.16283725 -0.22058345 -0.20309556 -0.2152997 0.10740329 -0.11425738 0.071466416 -0.55826163
0.43959337 -0.13695799 0.048347197 -0.3989815 -0.22255982 0.3010614 -0.24700347 0.6673531
0.41797033 0.7346126 -0.47719985 -0.01944939 -0.091996 -0.20464624 0.10539976 0.18513621
0.35528412 0.25111952 -0.2210748 0.36002246 0.00740881 -0.042526692 0.06331594 0.20865685
-0.28408116 -0.7060242 -0.28123352 -0.60314494 0.24061888 0.10856888 -0.122638576 0.57020664
-0.3075411 0.296494 -0.4286016 0.07738033 0.22051412 0.13410208 -0.5433255 -0.270059
0.09308298 -0.20027977 -0.030690096 0.4447863 -0.28193668 0.31562585 -0.05235009 -0.57894856
0.24891783 -0.24225275 -0.006295861 0.55312234 0.51424193 0.35607806 -0.7046352 -0.017361203
0.10137374 -0.09738183 0.033325817 0.34466365 0.3490476 0.3350887 0.29380283 -0.7435199
0.55427563 0.15765178 -0.31478053 0.0089415 -0.2833294 0.016125698 -0.105627075 0.18635035
-0.25208268 0.28301543 0.19203593 0.35680977 0.35174894 -0.2518997 -0.17620447 0.22202331
-0.321306 0.15076573 0.072331294 -0.1459914 0.42784214 -0.005574974 -0.32061416 -0.40658233
0.21650378 0.04373471 0.2168972 0.3701827 -0.13843454 -0.25956875 -0.29832694 -0.35532844
0.0073802294 0.053153556 -0.13177569 0.684988 -0.0718693 0.21818475 -0.24053332 -0.4306873
0.26658544 -0.3471809 0.55592984 -0.2399266 -0.29322907 0.45986566 -0.6344388 -0.5473414
0.16559394 0.09088257 -0.33649966 -0.3196836 0.27610794 0.38362443 -0.38377935 -0.28464493
-0.12147668 -0.30061683 0.16556656 0.33600152 -0.4650486 -0.38545167 -0.49643484 0.2875689
-0.53585374 0.09911068 -0.042860672 -0.012466133 -0.015006871 0.023783818 -0.00078644755 -0.010431296
-0.019079145 0.050949663 0.12025762 0.13359883 0.07041091 -0.39814594 -0.23938608 0.5227702
0.0059564533 0.24259806 -0.27950382 -0.48664057 -0.07481825 -0.41479343 0.3802377 -0.032091036
-0.4199353 -0.7362392 0.20624563 -0.22070698 0.5461615 -0.6639456 -0.11506479 -0.63846874
0.09101799 -0.99699134 -0.07821098 0.041908804 0.097835764 -0.31897932 0.64741623 0.2768
-0.47674432 -0.65375805 0.31574118 -0.73024035 -0.49851063 -0.10368353 0.5302654 -0.09202534

linear1.bias f4 [256]
00000000: 17c4 06bf add1 c13e 19f4 edbd d6f2 d8bd
00000010: d8be 7abe 5699 21be 4a19 aabe 79c5 7dbe
00000020: 29b8 87be 0332 2d3e 7820 d33e 668a 35bc
00000030: 6166 b0be 1d62 b0bc ec12 aebe 01b7 a53f
00000040: 8cc8 8cbe 879f 273e dc0c 1a3e 9f27 a5be
00000050: 2ee6 83bd 83d6 f53e c9af b83b 5798 ecbe
00000060: 0dcd 63be c8a8 83be b9d7 ebbe 0449 ba3e
00000070: 014a 2abc a587 94be bcf8 2abd 5d33 cb3d
00000080: 3d22 723e 2108 2abe 76ab 84be e278 81be
00000090: 1025 62bd 5146 b1be 69f7 3ebe 7d56 bcbe
000000a0: 290d 83bc c6d2 01bf 4c83 27bd 1239 aabe
000000b0: 0e80 98bd 146e a03d ee9b 4abe 4786 8fbe
000000c0: 880c 8cbe dcf7 91be 991a 4fbe 4149 0abc
000000d0: 2d5b f43c 8ecf c7be da07 51be f556 c0be
000000e0: e3f1 b7be d197 01be 3ee1 fa3e c9e9 f6bd
000000f0: 6255 453e e9c1 c6bd ed6d 24be 0f98 0e3f
00000100: 072a 20be 51f6 14be 5262 1abe 2410 c0be
00000110: c1a0 e6be 8e10 db3e 9c6e 593e 4e94 8a3d
00000120: 6ef3 97be cf88 bdbd 8e26 9f3e 79a8 49be
00000130: 4966 9fbd 49df 213e 74d1 12be 1fa0 2ebe
00000140: 6bd0 5fbd 5fbd 68bd 1480 933d 7411 dabd
00000150: 694c b93d 9fdf babe 5bcc 98be bb2e 893e
00000160: ad2a 10be 7846 6dbe 65b3 47be 45af bebe
00000170: dbc6 bfbe 3a80 05be a343 733c f156 bb3e
00000180: bfba 0a3e edad 8fbd b5ac 7fbe deea eabe
00000190: 3c42 633e 387d d2be a2b8 19be 0bb5 a9be
000001a0: 1713 a7be 3575 8ebe 18cd 80be dc93 db3d
000001b0: 49a5 b8be 93e7 2cbe b59e aabe 304a a93e
000001c0: 635b b9be 2328 d93d 0513 0f3e f17c 9bbd
000001d0: 0550 2bbe 0473 1ebd 11f2 babe e746 003f
000001e0: 191a cc3e c690 80bc 0b35 46be fed4 b4bd
000001f0: 3eae 9b3d d6cd 40be 0959 1abe 85e5 3dbe
00000200: 247e b13d 066c 87be 761c e0bc 9b4d 263e
00000210: 84cc 3c3e bc90 243e 87fd cfbe a431 003d
00000220: 609e 5ebe c343 413e 8547 a8be 1bfb 94be
00000230: 3d14 813e 746c 0fbe 88b9 3f3e 84bb febe
00000240: 0f6c 9ebe 29c3 913e 9c07 ee3a fb9e 963e
00000250: dcdc b63d 5ecb c83e cb65 6cbe 5990 40bd
00000260: 4511 d3bc 5bad a3be b3e2 19be dca0 18be
00000270: af92 a8be 0d85 823e 2d02 16be b120 ec3e
00000280: 5d8d 56bd 8f4c 95be c68d 2fbe 553f a3bd
00000290: c19f 0dbe 05bf 99be 840d 26be 9668 54be
000002a0: 996d 453e ede9 b73f 6e7a 503e ee1c b0be
000002b0: 15dd 93be ef40 57be 2090 a4be 984a 9dbb
000002c0: cb2a 8b3c 3c31 71be 2c6d 04bf 3747 18be
000002d0: c14b a5bd ce5b 43be 3fdc 4ebe 4eea 513e
000002e0: 50de aebe 8ed0 5b3d c85d 33be 6676 02be
000002f0: 11a4 58bd 88bb 853e fe73 d4bc 2118 8abe
00000300: 1805 ebbd d144 9e3c d867 48be e82d 0f3e
00000310: 142b 98be 3565 48be f94f b0be 6cab a6be
00000320: 196c 2a3e ada2 89bd db79 433e c8b3 9bbe
00000330: 2305 373e 8a89 96be dc2c 94be e789 3abd
00000340: 71c1 69be 8a7b 30bd 514a 08be 17e2 34ba
00000350: 57d2 eabe 8d7c 1f3e c798 04be 820c 84be
00000360: 90b3 4bbe b4e1 bbbe f411 02be d469 84bd
00000370: 62bf d7bd 5089 dcbe da1b 6a3e 4c0e f2bd
00000380: d830 a8be 8303 82be d1eb d3be 0119 73be
00000390: 0afa b83e 3dd0 4a3d 3374 4dbe bef5 fb3d
000003a0: 44f2 043e 7c56 233e 2a29 203e b0e0 3abe
000003b0: 7e59 a0be 75ca de3e 49ec e3bd 6130 36be
000003c0: 160e bdbc f222 cf3d 2ba8 933e 703d 83be
000003d0: 7ba7 b5be caa2 963e cca8 fb3e 8790 36be
000003e0: aae5 bebc c853 7bbe fb4d e4be ab14 1b3e
000003f0: 3d9e 80be 5baf b6be be1d c5be b7fd c33e
-0.5264296 0.37855282 -0.116188236 -0.10593192 -0.24486864 -0.1578115 -0.3322242 -0.24782361
-0.2650769 0.16913609 0.4123571 -0.01108036 -0.3445311 -0.021531159 -0.3399881 1.2946473
-0.27496755 0.16369449 0.15043968 -0.3225679 -0.06440388 0.48015222 0.0056361896 -0.46209976
-0.2224619 -0.25714707 -0.4606302 0.36383832 -0.0103936205 -0.2900974 -0.041741118 0.09921906
0.23645873 -0.16604663 -0.25912064 -0.2528754 -0.055211127 -0.3462396 -0.18649067 -0.36784735
-0.015997486 -0.5071224 -0.0408967 -0.33246666 -0.074462995 0.07833496 -0.19786045 -0.28032133
-0.2735331 -0.28509414 -0.2022499 -0.008440317 0.029828632 -0.3902554 -0.20413151 -0.37566343
-0.35926732 -0.1265557 0.4899997 -0.1205631 0.19270852 -0.09704954 -0.16057558 0.55700773
-0.15641032 -0.14547087 -0.15076569 -0.37512314 -0.4504452 0.42786068 0.212336 0.06766568
-0.2967791 -0.0925461 0.31084102 -0.19693173 -0.07783181 0.15807833 -0.14337713 -0.17053269
-0.054642122 -0.056821223 0.07202163 -0.1064786 0.09047777 -0.36498734 -0.2984341 0.26793465
-0.1407878 -0.23171413 -0.19502027 -0.37243095 -0.37456402 -0.13037196 0.014847669 0.3658977
0.135478 -0.070155956 -0.24968226 -0.45882314 0.22193235 -0.4111116 -0.15011838 -0.33145937
-0.32631752 -0.27823797 -0.25156474 0.10721561 -0.36063603 -0.16885214 -0.3332421 0.33064413
-0.36202535 0.106033586 0.13972099 -0.0759219 -0.16729744 -0.038683906 -0.36512807 0.5010819
0.3986366 -0.015694033 -0.19356172 -0.088296875 0.076015934 -0.1882852 -0.15073027 -0.18544586
0.086666375 -0.26449603 -0.027357321 0.16240542 0.18437392 0.16070837 -0.40623114 0.03129734
-0.21740103 0.18873505 -0.32867065 -0.29097828 0.25210753 -0.14006215 0.18723118 -0.49752438
-0.30941817 0.28469208 0.0018160227 0.29418167 0.08928844 0.39217657 -0.23085706 -0.04701266
-0.02576507 -0.31968197 -0.15027885 -0.14905113 -0.3292441 0.25492135 -0.14649267 0.46118692
-0.05238091 -0.29159972 -0.17143926 -0.07971064 -0.13830473 -0.3002855 -0.16216093 -0.20743021
0.1928009 1.4368263 0.20359203 -0.34397072 -0.2887961 -0.21020864 -0.3214121 -0.004800152
0.016988179 -0.23553938 -0.51729083 -0.14870916 -0.080710895 -0.1907799 -0.20201205 0.20499536
-0.34153986 0.05366569 -0.17516243 -0.12740478 -0.05289084 0.26119637 -0.025934216 -0.26971534
-0.11475581 0.019319924 -0.19570863 0.13982356 -0.29720366 -0.19569857 -0.34436014 -0.3255266
0.16642798 -0.06720481 0.19089453 -0.304106 0.17873053 -0.2940181 -0.28940475 -0.04554167
-0.22827698 -0.043086566 -0.133096 -0.0006900145 -0.45863602 0.15574856 -0.12948905 -0.25790793
-0.19892716 -0.36695635 -0.12702161 -0.064654976 -0.1053455 -0.4307351 0.22862187 -0.11819133
-0.32849765 -0.25393304 -0.4139085 -0.23740007 0.36128265 0.049514998 -0.20063858 0.12302731
0.12983042 0.1595096 0.15640703 -0.18249774 -0.31318277 0.43513837 -0.11129052 -0.17791893
-0.023078006 0.10114087 0.2883924 -0.2563281 -0.3547934 0.29421073 0.4915222 -0.1782857
-0.023302872 -0.24543679 -0.44590744 0.15144603 -0.25120726 -0.3568066 -0.38499254 0.38279507

linear2.weight f4 [3, 256]
00000000: fbc3 a4be 2284 f33b b1f0 2f3e 9cb2 1f3d
00000010: 7714 3ebe ac91 a0bb 0988 6dbc 8ee8 3f3d
00000020: 1687 523d c8d9 723e c811 703e c333 a3bd
00000030: e2ac a4bd f520 c6bc 4eba d9bd 9701 903e
00000040: 46e8 6f3c 0723 0abf 025c 2c3e 6fd0 36bb
00000050: 31bb 4d3e f086 fa3e 0b35 c0be c72d 16bb
00000060: 16f5 4dbd c55c 01bf d40f 3abe 064b de3d
00000070: 2c7c 0fbd 3b8a 8dbe 5d36 14be 2553 133e
00000080: 682e ec3e bae4 5abe 7833 4cbe 54e8 f4bc
00000090: a825 183e e2f7 1cbe e660 ac3d 9c1a b03c
000000a0: 0029 093e 3f8d 1bbe e538 c5bd 2003 71bc
000000b0: 5654 1f3d 3f8e 043e 80eb 7a3a e7a1 fe3c
000000c0: 8ebf 84bd 943a 10bd 0be2 93be 102a dc3d
000000d0: bd52 4abe 472a 91be 04e8 f3bd f3a8 4abe
000000e0: a72f 43be 668e afbe 0047 be3e aeec 143e
000000f0: 715c 473b 5989 ce3d b536 56bd 4e63 993e
00000100: 6a1a f2bc 9025 963c 9210 a33e cfc1 0fbd
00000110: c260 d4bb 3605 943e 1912 8a3e 3d73 e7bd
00000120: d21d 91be e083 6dbe 349b 533e 534e f83c
00000130: 7a0e c4be 41b1 113d 5d2b 8cbe 34f9 d5bd
00000140: b3e8 863d 98b6 243e 8f29 a8be a4a3 2abe
00000150: 456d 7a3e fd93 9a3d 726e 2d3c 2d28 8a3e
00000160: 9f96 073e f9fd 25bc f03e 7ebe a700 3b3e
00000170: 622d d23c a4e7 2cbd 6f92 603c abbc e33e
00000180: 4614 723e 3455 943b dd7e 703d ef29 61be
00000190: 9cb3 97be 9b3d 54be cef8 b03e 50d3 f9bc
000001a0: 8661 89bc 0d0a 703d 6a78 c53a 5b5a bfbe
000001b0: db7e c9bd 4f43 49bb 5502 333c ff10 c93d
000001c0: 3d41 58be 66f9 543e 3ca6 623d fba3 2a3e
000001d0: 8db1 91be b094 163e 08c5 f13d 350b 7e3e
000001e0: 9ef9 983d 9ebb 143e b14e 06bd e77c f53d
000001f0: 005a 863e 5714 a5be 6d03 8abe 3212 67bd
00000200: 53d0 6e3e c798 60be 0cb3 5cbe 91d9 fa3d
00000210: 32d7 3f3e 86b4 f63c f859 17be 4b8d 88be
00000220: 0442 d6bd e24f 33bf 92f6 e6bc 205d 593c
00000230: 321a 063e ec87 c3be b74e 343e 361d 03be
00000240: a651 9438 66ba a6bd 6abd e03d 0396 9e3e
00000250: daf1 0c3e 16bd 823e 0875 683e 9ab7 82be
00000260: de93 4dbe 5c7d 21be a0eb 1d3c 86bd 9a3c
00000270: d198 d8bd 7743 b7be 7171 4fbe 40e8 893e
00000280: be60 163e 2c4e 4b3d 88c1 1abd 824e 68bc
00000290: ce78 7fbc de4c 12bf 6bec 253e 7538 973d
000002a0: ccbe 7f3d c723 9a3e 5e41 5e3e 304b b0be
000002b0: 548a 6cbe dd44 1bbe a592 b93b c4f4 983e
000002c0: 719b cfbe aed1 883d 71e7 54bc 0d66 9f3e
000002d0: 5d21 b23e 9c59 123e 9243 b43d 2ee8 afbe
000002e0: 2cca 4b3d f26d 923e 030c 5b3d cee4 bdbe
000002f0: 45bb 5bbd c826 a83e 98aa c33c 35c4 8abd
00000300: 9158 0e3d 477d ddbc 8d2a 343d 08e5 7d3e
00000310: 052c 12bd 548b 2f3e be71 c53d 39da 2b3d
00000320: 3d96 01bf f40d 8e3e 6344 ae3c de51 b43a
00000330: 4f29 413e e3ff 96bc 8caa a8bd 3fad 3d3d
00000340: 0f6d a6bc d72f da3d f9a6 94be 1738 aa3e
00000350: 76be 57bc 5a28 073d 702b 80bd 4b1e 933c
00000360: 167e bdbd c23d 80bc 94a4 b33e f2a9 a9bd
00000370: ad99 173e 8732 c9bd 933d 043e 8b90 b9be
00000380: 2e7c 653c 2387 c2be 2a53 d2bc b134 c63e
00000390: 176a debb 6e1b 143e f0c8 3ebe 98c6 4bbe
000003a0: 743b 25bd 8c34 07be c4e5 9e3d 1715 623e
000003b0: 5199 e6bc f00f f43e a042 81be d177 a1be
000003c0: d0a5 e9bd 4bb3 b03b 104c 18be b73f 473e
000003d0: e005 21bf 2660 15bc df00 b23e fa76 68be
000003e0: b646 2e3e b1ea 04be 9898 233e fbea 4d3e
000003f0: 221c 3e3d 9964 0abe 6901 0f3c aa7e 0c3e
-0.3218077 0.007431523 0.1718166 0.038988695 -0.18562494 -0.004900178 -0.014497765 0.04685264
0.05139836 0.2371589 0.23444283 -0.07968857 -0.08040787 -0.024185637 -0.10631238 0.28126213
0.014642781 -0.539597 0.16831973 -0.0027895232 0.20090939 0.48931074 -0.3754047 -0.002291547
-0.05028256 -0.5053218 -0.181701 0.10854153 -0.03503053 -0.27644524 -0.14473863 0.14387186
0.46129155 -0.21376315 -0.19941509 -0.029895939 0.14858115 -0.15328935 0.084169194 0.021497063
0.13394547 -0.151906 -0.096299924 -0.014710218 0.03889879 0.12944888 0.00095718354 0.03108306
-0.06481849 -0.035212114 -0.28883395 0.1075021 -0.19758125 -0.28352568 -0.11909488 -0.19791012
-0.19061147 -0.3428833 0.37163544 0.14543411 0.003042009 0.10084791 -0.052298266 0.29958576
-0.02955361 0.018328458 0.3184858 -0.03509694 -0.006481261 0.28910226 0.26966932 -0.11301277
-0.28343064 -0.23194838 0.20664674 0.030310785 -0.38292295 0.035569433 -0.27376834 -0.10447922
0.065873526 0.16085279 -0.32844207 -0.16663986 0.24455746 0.07547758 0.010585414 0.26983777
0.13241051 -0.010131353 -0.24828696 0.18261968 0.025656406 -0.042213097 0.0137067875 0.4447988
0.23640546 0.0045267586 0.058714736 -0.21988653 -0.2962922 -0.20726626 0.34564823 -0.03049627
-0.016770136 0.058603335 0.0015065793 -0.37373623 -0.09838649 -0.0030710285 0.010925849 0.09817695
-0.21118636 0.20798263 0.055334315 0.16664116 -0.28455773 0.14705157 0.11805159 0.24808963
0.07469486 0.14524695 -0.03278989 0.11986714 0.2624054 -0.3224208 -0.2695574 -0.056413837
0.23321657 -0.2193328 -0.21552676 0.12248529 0.18734434 0.030115377 -0.14780414 -0.26670298
-0.1046181 -0.70043766 -0.028193746 0.013266832 0.1309593 -0.38189638 0.17608152 -0.12804112
7.072398e-05 -0.081410214 0.10973628 0.30973825 0.13764134 0.25534886 0.22700894 -0.25530702
-0.20075938 -0.15770477 0.009638697 0.0188892 -0.105760224 -0.3579366 -0.20258118 0.26935005
0.14685342 0.049635097 -0.037782222 -0.014178874 -0.015592767 -0.5714854 0.16203468 0.07383815
0.062437817 0.3010542 0.21704623 -0.34432364 -0.23099643 -0.15162988 0.0056632333 0.2987424
-0.4054828 0.06680618 -0.012994633 0.31132546 0.3479108 0.14291996 0.088019505 -0.34356827
0.049753353 0.28599507 0.053478252 -0.37088627 -0.05364539 0.32842088 0.023885056 -0.06775705
0.034752432 -0.027037276 0.043985892 0.247944 -0.03568651 0.17142993 0.09640835 0.04195616
-0.5061987 0.2774502 0.021272844 0.0013757308 0.18863414 -0.018432563 -0.08235654 0.0463078
-0.020315675 0.10653656 -0.2903364 0.33245918 -0.013167968 0.032997467 -0.06258285 0.01795878
-0.092525646 -0.015654448 0.350865 -0.082843676 0.14804716 -0.098240905 0.12914114 -0.3624309
0.0140066575 -0.37993726 -0.025674421 0.38712075 -0.0067875492 0.14463589 -0.18631339 -0.19899976
-0.040339902 -0.13203639 0.07758668 0.22078358 -0.028149279 0.4766841 -0.25246143 -0.31536725
-0.11408579 0.005392467 -0.14872766 0.19457899 -0.6289959 -0.009117162 0.3476629 -0.22701636
0.17019162 -0.12980153 0.15976179 0.20109169 0.04641355 -0.13514937 0.008728364 0.13720194

linear2.bias f4 [3]
00000000: cda5 743d 229c af3e 0477 233d
0.059728432 0.34298807 0.039908424
